Sepsis_Android/app/src/main/assets/sepsis.tflite (tflite, 3716 bytes, 11 tensors)

dense_1/MatMul_bias f4 [2]
000000 16 17 9f 3e 85 40 fb 3e
       0.310723 0.49072662

dense_1/kernel/transpose f4 [2, 8]
000000 1c 08 51 bc 4c 22 6c bf 14 9b 01 bd d1 8a f4 3c
       -0.012758281 -0.9223983 -0.031642035 0.02985135
000010 36 e7 77 be f1 5b 43 be a6 8b da be 32 93 5d 3e
       -0.24209294 -0.19078042 -0.42684668 0.21638182
000020 65 b7 19 bc 7d 10 70 bf 5e bd 5c 3d 17 d7 1f 3e
       -0.009382104 -0.9377516 0.053891532 0.15609394
000030 82 89 82 be 85 5a 23 be 1a 1f 25 bf 11 9a d0 3e
       -0.25495535 -0.15952499 -0.6450058 0.40742543

dense_2/MatMul_bias f4 [10]
000000 22 6f 52 3f ff 97 e6 3d 8e 56 11 3e b7 a7 01 bd
       0.82200825 0.1125946 0.14193174 -0.031654086
000010 00 00 00 00 00 00 00 00 8a 62 49 bd 7a 12 39 3e
       0.0 0.0 -0.04916624 0.18073454
000020 8e 96 cc 3e 04 76 32 bd
       0.39958614 -0.04356958

dense_2/kernel/transpose f4 [10, 2]
000000 d3 76 03 be 10 5e 88 bd ff 49 58 3b 63 40 2b 3e
       -0.12838297 -0.06658566 0.003300309 0.1672378
000010 bd 1c 0c 3c 4d 79 2a 3e d4 4a 8e bc bd 52 6b bd
       0.008551774 0.16647835 -0.017369665 -0.057451952
000020 b3 fd 3e bd 60 94 ca bc af 0c 4a bd 3e 86 4a bd
       -0.046628665 -0.024728954 -0.049328502 -0.04944443
000030 f9 05 2d 3b b3 60 93 be 70 67 d3 3d 10 00 5a 3e
       0.0026401265 -0.28784713 0.103224635 0.21289086
000040 b9 5a 33 be be ab 62 bf ec ad 36 bc 66 89 64 bd
       -0.17515077 -0.8854331 -0.011149865 -0.055795096

dense_3/MatMul_bias f4 [10]
000000 79 39 9b 3e 5b 18 d7 3e 00 00 00 00 00 00 00 00
       0.30317286 0.4201077 0.0 0.0
000010 a0 24 d9 3e f3 91 1d bd 52 1d 2c be 23 1c 1b bd
       0.42410755 -0.038469266 -0.1680806 -0.03786863
000020 d8 9f ea 3e fc ca cf bc
       0.45825076 -0.025365345

dense_3/kernel/transpose f4 [10, 10]
000000 ef 26 32 bf c3 99 e7 bd 4d e9 50 be e2 15 9e bd
       -0.6959066 -0.113086246 -0.20401497 -0.077190176
000010 57 8d 50 bb bd b5 87 bc 11 d9 bc 3c 04 7a 4f bd
       -0.0031822526 -0.016566152 0.023052724 -0.050653473
000020 e3 bd ef be 6c 12 a5 bc 82 61 c0 be 2e 9d 9b 3d
       -0.4682456 -0.020150386 -0.37574393 0.07598339
000030 06 3e dc 3d d0 e4 c5 3d a1 e1 85 bc 45 6e 98 bd
       0.107540175 0.09662783 -0.01634294 -0.07442907
000040 29 16 03 3d 5f c6 0a 3e 8d ce e5 be 6e cf 6d 3c
       0.032003555 0.13552235 -0.44884148 0.014514787
000050 b5 36 cd 3c 31 27 3d bd d8 21 6a bd 0b 6c 53 bd
       0.0250505 -0.046179954 -0.057161182 -0.05161671
000060 e8 df 22 bd c7 75 ae bd 9a 86 17 bd 42 53 02 be
       -0.039764315 -0.08518558 -0.0369936 -0.12727073
000070 07 45 8c 3c 13 70 e9 bc 1b 8c 5c bd 50 e8 f8 3b
       0.017122759 -0.028495824 -0.053844552 0.007596053
000080 d0 67 43 bd d3 5d 54 bb 17 3e 14 3d ea 23 d7 bc
       -0.047706425 -0.0032404556 0.036192026 -0.026262242
000090 c5 a8 a6 bd a7 e0 4b bd 47 93 9c 3d 33 f6 32 bd
       -0.08137659 -0.049774792 0.076452784 -0.043691825
0000a0 04 37 b6 be 3c 24 ca 3c 96 d3 62 bc 5e d3 45 3d
       -0.3558885 0.024675481 -0.013844391 0.04829728
0000b0 09 05 19 3d 2c 3a 96 3d aa c1 ea 3b 8a aa 2e 3e
       0.037358318 0.07335314 0.0071642 0.17057243
0000c0 c4 9b ed be af d5 41 3c 37 b0 aa 3b 57 db b3 bc
       -0.46407902 0.011830731 0.0052089947 -0.021955175
0000d0 c8 e8 d9 bd 6a e9 9a 3d 7b 0c f5 3d ea 1c f9 bc
       -0.106401026 0.075640514 0.11965271 -0.030409295
0000e0 5a 89 05 bd 43 0f 46 bc c9 80 87 3d b0 9d c5 3c
       -0.03260169 -0.0120886 0.06616361 0.024123043
0000f0 fb 77 3a 3e 6b 2b 0b be f9 38 43 be bf b3 cc 3c
       0.18209831 -0.13590781 -0.19064702 0.024988053
000100 6c 25 2a bd ae a5 25 3d 67 a7 db bd 64 18 8c be
       -0.041539595 0.040441208 -0.10725289 -0.2736236
000110 50 be 1b 3e 1d ad 84 3c ef 79 06 bd 7a 90 a6 bc
       0.15209317 0.016195828 -0.03283113 -0.020332564
000120 92 41 5f bd 9a 3d 0a bd 92 df cd bc 4b 70 fc 3d
       -0.054505892 -0.033750154 -0.02513102 0.12326106
000130 e8 4f ae 3b 36 ce 25 bd 22 0c 0c 3b 58 02 fd 3c
       0.005319584 -0.04047986 0.0021369536 0.030884907
000140 b0 e4 e5 be 0a 30 28 3e 91 eb 33 3e c8 78 1b 3c
       -0.44901037 0.16424575 0.1757033 0.009489246
000150 a7 03 a4 bd 6a 54 01 be d7 7c 3a bd 71 55 e9 3d
       -0.08008509 -0.12629858 -0.045529213 0.1139325
000160 20 16 d9 be f7 14 9e bd 53 99 0b be ec 9f dc 3c
       -0.42399693 -0.077188425 -0.13632707 0.026931725
000170 de ab e0 3c 4d 13 af bd 1c d8 08 3d ba 2f 6b 3d
       0.027425703 -0.08548603 0.033409223 0.057418562
000180 ca d9 9e 3d 75 36 cd bd d3 71 fc bd bd d2 d4 3c
       0.07756384 -0.100201525 -0.12326398 0.025979394

dense_4/MatMul_bias f4 [10]
000000 50 e0 23 3f 37 89 1e 3f c4 c5 16 3f e6 8b ff bc
       0.6401415 0.61928123 0.58895516 -0.031194638
000010 c3 c1 16 3f 6a 6c 21 3f cf f5 9f ba 46 de 24 3f
       0.58889407 0.6305605 -0.0012203994 0.6440166
000020 bc 65 1b 3f f2 59 8c b9
       0.6070211 -0.00026769895

dense_4/kernel/transpose f4 [10, 10]
000000 9f 64 a9 3c 40 19 11 3e 0f 09 8c bd 9f 16 41 3c
       0.020677863 0.14169788 -0.06837665 0.011785178
000010 f7 a8 8b 3d ab ea 29 bd 8d bc c2 3c 09 12 63 bc
       0.06819337 -0.041483562 0.023771549 -0.01385928
000020 77 fc 06 3e 7e 1c ac 3d f0 e2 45 be ee e2 f5 3d
       0.13182245 0.08403872 -0.19324851 0.12006174
000030 dd 66 8b bd 50 65 13 bd 9f ad ee 3d 17 51 ed bb
       -0.06806729 -0.03598529 0.11654209 -0.0072423327
000040 f1 63 72 bd 16 02 31 bd c7 a4 1b 3e c4 55 8a bd
       -0.059177343 -0.04321488 0.15199576 -0.0675464
000050 ff 39 11 be 3d 73 df 3d 5b c3 39 3d e6 3b af bc
       -0.1418228 0.10910652 0.04535232 -0.021390866
000060 13 5c e7 3d db 00 81 bd b3 64 9c 3b 14 3d d7 bc
       0.11296859 -0.06298991 0.0047727465 -0.026274242
000070 71 2d d2 3d 23 f0 80 3d b2 07 42 bd f9 69 83 bd
       0.102625735 0.062958024 -0.04737062 -0.06416697
000080 d1 fc 28 3d 4f 94 c9 3d a7 c0 a7 bb f2 71 2f bd
       0.04125673 0.09842741 -0.0051194015 -0.042833276
000090 0e 04 b2 bc 45 75 ff bb b3 03 e2 bb 2e 9d 2e bd
       -0.021730449 -0.007795962 -0.0068974136 -0.042630367
0000a0 59 47 ba bd cf 0a 63 3d 4b 60 7b bd b3 46 48 3c
       -0.0909564 0.05543023 -0.06137113 0.012223887
0000b0 0b a5 9c 3c 35 a7 aa 3d 6e c4 ee 3b c8 48 03 bc
       0.019121667 0.083326735 0.0072866 -0.008012958
0000c0 46 05 f9 3d 23 0e 20 be d0 fd e0 bd 25 b5 a2 3d
       0.12159209 -0.15630393 -0.10985911 0.07944707
0000d0 16 da 3c 3d 38 0f 37 ba c7 d3 c1 3d 60 a2 5d 3c
       0.04610642 -0.0006983164 0.094642214 0.013527483
0000e0 5e 1c 64 bb aa 60 41 bd 55 fa 7f 3e 58 31 01 bd
       -0.0034806947 -0.047211327 0.24997838 -0.0315412
0000f0 93 21 87 3d c5 64 22 be 8a 9d a4 3d ba 1f ba 3c
       0.06598201 -0.15858753 0.08037861 0.022720207
000100 65 6f ad bd 98 4a 19 3b 6c 93 7a 3d 05 3a 0f bd
       -0.084685124 0.0023390409 0.06117575 -0.03496744
000110 1d c4 e8 bd 8d 49 33 3d 02 87 b9 3c 97 53 07 3e
       -0.11365531 0.043771315 0.022647385 0.1321548
000120 b8 c0 d7 3d 0f 89 b8 3d cd bc 35 3e 86 82 8e 3b
       0.10534805 0.09010517 0.17747803 0.0043490557
000130 c0 a9 28 3b 23 94 14 bd 41 a0 2a 3e a3 5c 59 bd
       0.0025735945 -0.036274087 0.16662695 -0.05306686
000140 af 5b 1f be 19 b8 44 3e 5a 0d b3 bd a8 88 8e bd
       -0.15562318 0.19210853 -0.08742781 -0.06959659
000150 d4 18 0e 3d 97 6d 2d bd d6 af 62 3c 1c 03 b5 3d
       0.034691647 -0.04234084 0.013835868 0.08838484
000160 e4 42 0e 3e b1 86 0b 3d 6d 49 91 bd 38 0f a0 bc
       0.13892704 0.034064 -0.07094083 -0.019538507
000170 eb c8 2c 3d a1 8f c5 bd 8e 05 41 3a fb c0 d2 bb
       0.042183798 -0.09646536 0.00073631934 -0.0064316965
000180 0a 6d e3 3d 62 73 9f bd 20 68 6e bc ad 56 30 3c
       0.11104782 -0.077856794 -0.0145511925 0.010762853

dense_5/MatMul_bias f4 [6]
000000 1b 6a 4e 3f 3a 1f 4f 3f fd 06 4f 3f 94 1f 3f 3f
       0.80630654 0.8090702 0.8087004 0.7465756
000010 00 00 00 00 09 d7 4f 3f
       0.0 0.8118749

dense_5/kernel/transpose f4 [6, 10]
000000 df 84 37 3e 54 19 14 3e d3 fc 45 3e 83 09 ce bd
       0.1792178 0.14462787 0.19334726 -0.10060408
000010 e1 1c 23 3e c9 9c 4d 3e ac f0 30 3c 47 49 4b 3e
       0.15928985 0.2007934 0.010799568 0.19852172
000020 0f 73 62 3e 9d b8 cb bd 5a 6f 8f 3e 20 39 57 3e
       0.22114204 -0.099473216 0.28014642 0.21017885
000030 26 7b 03 3e b1 90 85 bd c5 5e 26 3e a7 f0 80 3e
       0.12839946 -0.06521738 0.16247089 0.25183603
000040 06 18 5c bd de be 60 3e e3 1e 25 3e e8 dd 88 bd
       -0.053733848 0.2194781 0.16125064 -0.0668295
000050 a0 a2 16 3e fd 23 78 3e c3 73 27 3e 83 18 af 3c
       0.14710474 0.24232478 0.16352753 0.021373993
000060 47 32 02 3e a5 e7 72 3e a8 43 8c bc 1e 45 86 3e
       0.12714492 0.23721178 -0.017122105 0.26224607
000070 43 6e 43 3e f5 bc 85 3d 90 20 57 3e f2 e2 13 3e
       0.1908503 0.06530181 0.21008515 0.14442042
000080 55 4d e8 3d ae 04 08 bb 70 71 32 3d 62 c6 ba 3d
       0.11342875 -0.0020754742 0.043565214 0.0911987
000090 16 3c c8 bd d1 73 12 3e 7c 09 98 3d 23 71 34 3d
       -0.097770855 0.14301993 0.07423684 0.044053208
0000a0 73 a0 b8 bc 63 7c e9 3c 1f 8c 10 be 67 5b 5c 3c
       -0.022537446 0.028501695 -0.14115952 0.013449526
0000b0 44 ce 41 3d 1b 01 4b bd 2a 9d 91 3b 8f da 1b bd
       0.04731585 -0.0495616 0.0044437842 -0.03805023
0000c0 4e 4a 0b 3d 64 fe 21 bd 2a 67 72 3e 8f cb 48 3e
       0.03400641 -0.039549246 0.23672166 0.19608901
0000d0 6d c5 49 3e 8f 5d 05 3d a0 12 55 3e f3 ef 66 3e
       0.19704218 0.032559928 0.20807886 0.22552471
0000e0 2e 55 ae bb f5 c9 85 3e b4 b8 54 3e 4b 60 44 3d
       -0.005320213 0.26130643 0.20773584 0.047943395

dense_6/kernel/transpose f4 [1, 6]
000000 70 93 83 be f2 15 86 be 7f 68 93 be 35 7b 49 be
       -0.25698423 -0.26188618 -0.28790662 -0.19675906
000010 0f 08 3a bd 68 f4 97 be
       -0.04541784 -0.29678655
